models/lstm_best.pth (torch, 467986 bytes, 16 tensors)

lstm.weight_ih_l0 f4 [512, 21]
0	0x3d4d0a98	0.05005893
1	0xbe3a051a	-0.18166009
2	0x3cc31d34	0.023817636
3	0x3dc5c78e	0.09657203
4	0xbe059a88	-0.1304723
5	0xbc823b3d	-0.015897388
6	0xbd79a891	-0.060951773
7	0xbe1e4894	-0.15457374
8	0xbcb2ec7f	-0.021841286
9	0x3d95a4dd	0.07306836
10	0xbe8ae1d0	-0.27125406
11	0xbd375b78	-0.044764966
12	0xbd91caf8	-0.07118791
13	0x3bbbf4db	0.005735976
14	0xbd3e906f	-0.04652446
15	0x3c1c3b0b	0.009535561
16	0xbe4213fa	-0.18952933
17	0xbd866b48	-0.06563431
18	0xbe04ea64	-0.12980038
19	0x3c8c8615	0.017153779
20	0x3c3414f6	0.010991326
21	0x3d453bbd	0.048152674
22	0xbe0186d7	-0.12649094
23	0x3ba17428	0.004927177
24	0x3db9aca5	0.090661325
25	0xbd6ba1ee	-0.057527475
26	0x3cc9bc3b	0.024625888
27	0xbb42536d	-0.0029651776
28	0x3d190feb	0.037368696
29	0xbe15722b	-0.14594333
30	0xbe8a8ea7	-0.2706196
31	0xbb3a4583	-0.002842278
32	0x3f079bd2	0.5297214
33	0x3ce82984	0.028340109
34	0xbe3b08de	-0.18265101
35	0xbde45d23	-0.11150577
36	0x3c3ce06b	0.011528115
37	0x3d6d5625	0.057943482
38	0xbeb3505b	-0.35022244
39	0x3eb87d08	0.3603289
40	0xbf2e5fb4	-0.6811478
41	0x3ea850e3	0.32874212
42	0x3e36b57e	0.17842671
43	0x3e7d5c04	0.24742132
44	0xbd8cbc4f	-0.068718545
45	0x3d87cfd4	0.06631437
46	0x3d9d7067	0.07687455
47	0xbd9eb85a	-0.07750006
48	0x3e1b9bd2	0.1519616
49	0xbcaa647e	-0.020799872
50	0x3db9bc07	0.090690665
51	0xbd3824dc	-0.044957027
52	0xbd90c8c2	-0.070695415
53	0x3c2b119f	0.010441213
54	0xbd4f9f50	-0.05068904
55	0x3db9a25b	0.0906417
56	0xbe3deb9d	-0.1854691
57	0x3cce0038	0.025146589
58	0xbb7ab9c9	-0.003825771
59	0x3c219dbc	0.009864267
60	0x3d3337ee	0.04375451
61	0x3d6a2dda	0.057172634
62	0x3db109b5	0.086444296
63	0x3d444543	0.047917616
64	0x3c510cbf	0.012759387
65	0x3d1d310a	0.038376845
66	0x3bce4743	0.006295116
67	0xbdd71dba	-0.10503717
68	0x3e0636f4	0.131069
69	0x3a3a6aa4	0.00071112276
70	0x3e12b5b8	0.14327133
71	0x3e427fb1	0.18994023
72	0xbe603b1f	-0.21897553
73	0x3ee935a0	0.45548725
74	0x3e6525ef	0.22377752
75	0x3e5da0b8	0.2164334
76	0xbdc48113	-0.095949315
77	0xbe295b34	-0.16538697
78	0xbc1d0756	-0.009584269
79	0xbd86b7af	-0.065780036
80	0xbdd612ea	-0.10452826
81	0xbcb0f3b0	-0.021600574
82	0x3e361d3b	0.17784588
83	0xbd2ee2d8	-0.042696804
84	0x3deba09a	0.11505242
85	0x3d999793	0.074996136
86	0x3e09423b	0.13404171
87	0xbb3127f5	-0.0027031873
88	0x3d9a2b73	0.075278185
89	0x3e052ca0	0.13005304
90	0xbd283732	-0.041068263
91	0x3e562bea	0.2091519
92	0xbce6b794	-0.028163709
93	0x3e80f16d	0.25184193
94	0xbdba5a33	-0.090992354
95	0x3d7a0c29	0.061046753
96	0xbdb7266a	-0.08942874
97	0x3d685a1a	0.056726553
98	0xbe2b4ba5	-0.16728075
99	0xbdc7cc87	-0.09755807
100	0x3cea89ca	0.028630156
101	0xbd91f076	-0.071259424
102	0x3c94004c	0.018066548
103	0xbd72dbe5	-0.05929174
104	0xbdb771ac	-0.08957228
105	0x3bc0ec57	0.005887549
106	0x3d6d4356	0.057925545
107	0x3c8c49dd	0.017125065
108	0xbe5b29d7	-0.2140268
109	0x3d21475f	0.039374705
110	0x3d451e32	0.0481245
111	0xbdce6c9b	-0.100793086
112	0x3e6a9cf5	0.22911437
113	0x3e963c89	0.2934306
114	0x3d1cf801	0.038322452
115	0x3e89db20	0.26924992
116	0x3d1dcddd	0.038526405
117	0x3d3eef12	0.046614714
118	0x3e0b7bb4	0.13621408
119	0xbdfb81d4	-0.12280622
120	0x3cee14ef	0.029062716
121	0xbc945dcc	-0.018111132
122	0xbce8a705	-0.028399954
123	0xbd2d1fb2	-0.042266555
124	0x3de0b68e	0.109723195
125	0x3d2f9a3b	0.042871695
126	0x3a65c2b3	0.0008764669
127	0xbc7c3377	-0.01539313
128	0x3dee6464	0.11640242
129	0x3dcf0e8a	0.10110195
130	0x3c47e340	0.012200177
131	0x3d636c9e	0.055523507
132	0xbd808927	-0.0627616
133	0xbccc7c23	-0.024961537
134	0x3e16030f	0.14649604
135	0x3d42adda	0.04752908
136	0xbe0a6c7c	-0.13517946
137	0x3c6bb2c0	0.014385879
138	0xbde7a56e	-0.1131085
139	0x3d9a9f17	0.07549875
140	0xbdf492c2	-0.11942054
141	0x3d9720ca	0.07379301
142	0xbd9d8f76	-0.076933786
143	0xbdbe8a9f	-0.093037836
144	0xbcf5b4b7	-0.029993398
145	0x3d437eac	0.047728226
146	0xbd8bf1b5	-0.06833211
147	0x3d3d8da2	0.04627765
148	0x3de3655e	0.11103319
149	0x3bd96432	0.0066342587
150	0xbe18997f	-0.14902304
151	0x3dc9e9c2	0.09859039
152	0x3d22aedc	0.03971754
153	0x3aa85f85	0.001284585
154	0xbce42b97	-0.027852817
155	0xbe16490a	-0.146763
156	0xbdaf748b	-0.08567151
157	0x3e9ccc4a	0.3062461
158	0x3dbde8ac	0.09272894
159	0x3c26a7da	0.010171855
160	0x3eab7a5e	0.33491796
161	0xbcf903fc	-0.030397408
162	0x3e03dae4	0.12876469
163	0x3dc979cf	0.09837686
164	0x3de02b97	0.10945814
165	0xbd449e54	-0.048002556
166	0x3e1e8294	0.15479499
167	0xbcda812c	-0.026672922
168	0xbdf1c1bd	-0.11804531
169	0x3c2b8618	0.010468982
170	0x3d361c47	0.04446056
171	0xbd734b42	-0.059397943
172	0xbd8a90da	-0.067659095
173	0x3d374b90	0.044749796
174	0xbe169e4e	-0.14708826
175	0xbd280f5d	-0.041030277
176	0x3e16d1ca	0.14728466
177	0x3d9392e4	0.072057515
178	0xbdd7dbea	-0.10539992
179	0xbda1700e	-0.07882701
180	0xbdfc98b8	-0.12333816
181	0x3ebbd6f7	0.36687443
182	0xbe4078f6	-0.18796143
183	0xbe878cfe	-0.26474756
184	0x3e0251f0	0.12726569
185	0xbd28a6bf	-0.041174646
186	0xbe026b87	-0.12736331
187	0xbdbaca72	-0.09120645
188	0x3e20365d	0.15645738
189	0xbc81931e	-0.015817221
190	0x3db3bbc6	0.08776049
191	0xbc90d2bb	-0.01767861
192	0xbe7e8820	-0.24856615
193	0x3d6e3f49	0.058165822
194	0xbb364fa6	-0.002781847
195	0x3d245c48	0.04012707
196	0x3e3d6890	0.18496919
197	0xbe84de0e	-0.25950664
198	0xbb711d11	-0.0036791007
199	0xbd89fe2f	-0.06737935
200	0xbe3f6e49	-0.18694414
201	0xbe068a44	-0.13138682
202	0x3ecfaa8b	0.405598
203	0xbdc37882	-0.095444694
204	0xbe336954	-0.17520648
205	0x3d8aa9f0	0.06770694
206	0x3e632e8f	0.2218573
207	0x3bfdbddd	0.0077435807
208	0x3cc7e996	0.024403375
209	0xbe453e60	-0.19262075
210	0x3dd7d30b	0.105383
211	0xbe50da83	-0.20395856
212	0x3ba38755	0.004990498
213	0x3d1923c2	0.037387617
214	0xbe14f163	-0.14545207
215	0xbc8bc594	-0.017061986
216	0x3dabacea	0.0838259
217	0xbe19f86e	-0.15036175
218	0x3dcfd41a	0.10147877
219	0xbd6fe85b	-0.0585712
220	0x3c24c6d9	0.010057175
221	0xbda97d97	-0.082759075
222	0x3dd0b76b	0.10191234
223	0xbe4bcdc3	-0.1990271
224	0xbb865c59	-0.004100364
225	0xbd694c83	-0.056957733
226	0xbdc92a49	-0.098225184
227	0x3b24247d	0.0025046163
228	0xbe27e762	-0.1639686
229	0xbc05047f	-0.008118748
230	0x3cee982c	0.029125296
231	0xbc20fa5b	-0.009825314
232	0x3e1b88fe	0.15188977
233	0x3da94701	0.08265496
234	0x3d4ec77f	0.050483223
235	0xbcc96aec	-0.024587117
236	0xbe473c19	-0.19456519
237	0x3e127aa0	0.1430459
238	0xbe735183	-0.23761563
239	0x3d46c7ec	0.048530504
240	0x3e153469	0.14570774
241	0x3d26a8d2	0.040688343
242	0xbd2e9c99	-0.042629812
243	0x3d85ad5d	0.06527207
244	0xbdbd1c57	-0.09233921
245	0xbd7bcfa1	-0.061477307
246	0xbdd67c0f	-0.10472881
247	0xbcefe329	-0.029283123
248	0xbdee0ece	-0.116239175
249	0x3bead896	0.0071669323
250	0x3c8dfb87	0.017331852
251	0xbe07bf1c	-0.13256496
252	0x3da9b38a	0.082861975
253	0xbd2174b8	-0.039417952
254	0x3e2ecd33	0.17070465
255	0x3d99fe07	0.07519155

lstm.weight_hh_l0 f4 [512, 128]
0	0xbdb36aca	-0.08760603
1	0xbe0873e9	-0.13325466
2	0x3c6f020e	0.014587892
3	0xbdbfff77	-0.09374898
4	0xbc5f89ec	-0.013643723
5	0xbc443068	-0.011974432
6	0x3d65c58c	0.0560966
7	0xbd08f317	-0.033434954
8	0xbcf35cc0	-0.029707313
9	0xbe016b82	-0.12638667
10	0x3d9916e7	0.074750714
11	0x3d884293	0.06653323
12	0xbc7fc37d	-0.015610573
13	0x3d6cc957	0.0578092
14	0x3adf622d	0.0017042808
15	0x3d26ea15	0.04075058
16	0x3c91e747	0.017810477
17	0xbd30eed4	-0.043196514
18	0x3d064d23	0.032788407
19	0x3cf2ca3a	0.029637445
20	0xbd39ab20	-0.045329213
21	0xbd64491b	-0.05573378
22	0xba0310f5	-0.000499978
23	0xbcf165b0	-0.029467434
24	0x3dbf302d	0.09335361
25	0xbd8b7c01	-0.06810761
26	0x3ce46474	0.027879931
27	0xbd6a72c3	-0.05723835
28	0x3d300a9c	0.042978868
29	0xbd13132b	-0.035906952
30	0xbceb8499	-0.02874975
31	0xbd816685	-0.06318382
32	0x3de2db92	0.11077036
33	0xbce659d3	-0.028119003
34	0x3d3fa9d7	0.04679283
35	0x3d05afa6	0.032638215
36	0xbe103143	-0.14081292
37	0xbdce7ca9	-0.10082371
38	0x3e4268f2	0.18985346
39	0xbda86255	-0.0822188
40	0xbca13d21	-0.019682469
41	0x3c9e4a00	0.019322395
42	0x3d25e473	0.04050107
43	0x3d83a1be	0.06427334
44	0x3c754721	0.014970572
45	0x3d19fd64	0.037595168
46	0xbd937652	-0.07200302
47	0xbbbecc3b	-0.005822686
48	0xbc2a065a	-0.010377491
49	0xbda14e52	-0.078762665
50	0xbdd92fa2	-0.10604788
51	0xbdb6cc34	-0.089256674
52	0x3a0402d0	0.00050358195
53	0x3c52aa85	0.012858038
54	0xbd98296a	-0.07429774
55	0x3e466f37	0.19378363
56	0x3dc18156	0.09448497
57	0xbe2ed049	-0.17071642
58	0xbd8b0cca	-0.06789549
59	0x3db5499e	0.08851932
60	0x3d6d83b0	0.057986915
61	0x3e3ee68f	0.18642639
62	0x3e33fd57	0.1757711
63	0xbde49233	-0.11160698
64	0x3e3ff0e1	0.18744232
65	0x3d780cd6	0.060559116
66	0xbb00f573	-0.001967755
67	0x3d0a948f	0.033833083
68	0xbdad4a3d	-0.084614255
69	0x3d90289a	0.07038994
70	0xbd1138ea	-0.035454668
71	0x3c6585b8	0.014008932
72	0xbd9ed0f6	-0.077547
73	0xbd99edc4	-0.07516053
74	0x3d8f4261	0.06995083
75	0x3d483240	0.048876047
76	0x3e2a692a	0.1664168
77	0x3d50d96d	0.050988603
78	0x3b6a2a44	0.0035730759
79	0xbada73b1	-0.0016666559
80	0xba234655	-0.0006228437
81	0xbe81e748	-0.25371766
82	0x3e295ec8	0.16540062
83	0xbcc4452d	-0.023958767
84	0xbe0deb41	-0.13859273
85	0x3cd9f3fb	0.026605597
86	0xbdf35eaf	-0.11883294
87	0x3cdfc6e0	0.02731651
88	0x3e16a1f8	0.14710224
89	0xbbff7232	-0.0077955956
90	0x3cb7ae9e	0.022422131
91	0xbd0c083a	-0.034187533
92	0xbd13bd5c	-0.03606926
93	0x3dddaa22	0.10823466
94	0x3e080216	0.13282046
95	0xbd0124fb	-0.031529408
96	0xbd276925	-0.040871758
97	0xbe0fd314	-0.14045364
98	0x3c584ca7	0.013201869
99	0xbdbf1bf5	-0.09331504
100	0x3c61fadf	0.0137927225
101	0x3cccb8d4	0.024990477
102	0xbd83fbc0	-0.06444502
103	0xbe9b4e0a	-0.30332977
104	0x3dca59ac	0.09880385
105	0xbdfb1f24	-0.12261799
106	0x3cad6e57	0.021170778
107	0xbd295a84	-0.041346088
108	0xbd334896	-0.043770395
109	0x3e17ee1a	0.14836922
110	0xbd70d85d	-0.05880009
111	0x3e2e5e42	0.17028144
112	0xbd97b44c	-0.07407436
113	0x3d4ea3dc	0.050449237
114	0xbd9e9d66	-0.07744865
115	0x3c05efb7	0.008174828
116	0xbe021bda	-0.12705937
117	0xbdeb7574	-0.11497012
118	0x3e742332	0.23841551
119	0xbe2030ad	-0.15643568
120	0xbd6b0813	-0.057380747
121	0x3de4348e	0.111428365
122	0x3ca541b7	0.020172937
123	0xbd8f9d11	-0.0701238
124	0xbdb00db8	-0.08596367
125	0x3bafc6f9	0.0053642956
126	0xbdecbda2	-0.11559607
127	0xbd7016d6	-0.058615528
128	0x3c589a53	0.0132203875
129	0x3d80c4ee	0.06287561
130	0xbc74279b	-0.014902021
131	0xbc1fb93b	-0.009748752
132	0x3d039841	0.032127623
133	0x3d82c30f	0.06384861
134	0xbd0da5fd	-0.034582127
135	0xbd4946d8	-0.049139827
136	0xbd251f58	-0.040313095
137	0x3d11a8e5	0.03556146
138	0x3e2eccfd	0.17070384
139	0xbd7ae09d	-0.061249364
140	0x3cefc27c	0.029267542
141	0xbd092270	-0.033480108
142	0xbe40eb88	-0.18839848
143	0xbe83ad32	-0.25718075
144	0xbd090897	-0.033455458
145	0xbe574899	-0.21023788
146	0x3d0084c4	0.031376615
147	0x3c1415b1	0.009038375
148	0x3d6c8673	0.05774541
149	0xbd5159f4	-0.051111177
150	0x3cbd3388	0.023095861
151	0x3cdafb76	0.026731234
152	0xb9a81973	-0.00032062418
153	0xbd338bdf	-0.043834563
154	0x3d2f4cb3	0.042797755
155	0xbccc9561	-0.024973573
156	0xbdfb5f5b	-0.12274047
157	0x3dd4a9af	0.10383927
158	0x3db4ce50	0.088284135
159	0xbe7ce21b	-0.24695627
160	0x3d330ec9	0.043715272
161	0xbda43dec	-0.08019623
162	0xbc8a2367	-0.016862584
163	0x3c70b5ff	0.014691829
164	0xbd29d5aa	-0.04146353
165	0x3d95d62a	0.07316239
166	0xbd535e6c	-0.05160372
167	0x3d192980	0.037393093
168	0xbe90dc5d	-0.28293124
169	0xbe17ef3d	-0.14837356
170	0xbda1c9f7	-0.0789985
171	0xbd9f7c1e	-0.07787345
172	0xbe10b826	-0.14132747
173	0xbccc286b	-0.024921617
174	0xbeec7659	-0.46184042
175	0x3b8b67b0	0.004254304
176	0x3dfa4860	0.12220836
177	0x3df8221e	0.12115882
178	0x3da318d4	0.0796372
179	0x3e400595	0.1875213
180	0x3e2ffc4b	0.17186086
181	0x3dc9f123	0.09860446
182	0x39b8b37b	0.00035228938
183	0xbc507629	-0.012723484
184	0x3d11780d	0.03551488
185	0xbc66b85a	-0.014082039
186	0x3d9bae20	0.07601571
187	0xbbe201c8	-0.006897185
188	0xbdc4c998	-0.096087635
189	0xbd513bf2	-0.05108256
190	0x3db62067	0.08892899
191	0x3c20bbb2	0.009810375
192	0x3d93f31b	0.07224103
193	0xbbd76cf2	-0.0065742666
194	0x3ca231e4	0.01979918
195	0xbe0e737a	-0.13911238
196	0x3ca5b037	0.020225627
197	0x3d2fa956	0.0428861
198	0x3e015ef5	0.1263388
199	0x3d7c8e45	0.061659116
200	0x3e14c5e5	0.14528616
201	0xbd435577	-0.047688928
202	0x3d08c27a	0.033388592
203	0xbc3649b8	-0.011125974
204	0x3d339465	0.043842692
205	0x3e21c359	0.15797175
206	0xbcd63004	-0.026145943
207	0x3d7d0fab	0.06178252
208	0x3cc77f2c	0.024352632
209	0x3bd60493	0.006531307
210	0xbc74aa8e	-0.0149332415
211	0x3cb08392	0.021547113
212	0xbc4495f5	-0.011998643
213	0x3dff6f60	0.12472415
214	0x3e5429f6	0.20719132
215	0xbdd98fbd	-0.10623119
216	0xbe8e948e	-0.27847713
217	0xbe053d9a	-0.1301178
218	0x3ca56775	0.020190934
219	0x3d89cfdc	0.06729099
220	0xbd43e86e	-0.047829084
221	0x3cbc07a0	0.022952855
222	0x3c9b2fc0	0.018943667
223	0x3e021751	0.12704207
224	0xbe405944	-0.18784052
225	0xbd9ac89a	-0.07557793
226	0x3c35e2b2	0.011101412
227	0x3d43c9a7	0.047799733
228	0x3e10a413	0.1412509
229	0xbdf063e6	-0.11737804
230	0x3d299054	0.041397408
231	0xbced5a57	-0.028973741
232	0x3d209457	0.039203968
233	0xbc85e5eb	-0.016344985
234	0x3d812b41	0.06307078
235	0x3dd7f46c	0.10544667
236	0x3dc0705b	0.0939643
237	0x3e243ca2	0.16038755
238	0xbb9e7bfd	-0.004836558
239	0x3db8e268	0.090275586
240	0x3d592577	0.053014245
241	0xbbe40a69	-0.006959249
242	0x3d22e3f4	0.039768174
243	0x3cc5f149	0.024162905
244	0x3d5152ef	0.051104482
245	0xbe2301ba	-0.15918627
246	0x3e3ef33b	0.18647473
247	0xbe4cc44a	-0.19996753
248	0xbe01d952	-0.12680557
249	0x3d31163a	0.043234088
250	0xbddd1d9e	-0.10796665
251	0xbd1cd47f	-0.03828859
252	0xbe58bb99	-0.21165313
253	0x3e9a2f1c	0.30114067
254	0x3e2f4325	0.17115457
255	0xbe1fbf71	-0.15600373

lstm.bias_ih_l0 f4 [512]
0	0xbe2c2126	-0.1680952
1	0x3cbb313e	0.022850629
2	0xbdc003a7	-0.09375697
3	0xbd3bb3f7	-0.045825925
4	0xbcfbe600	-0.030749321
5	0x3da25c36	0.07927744
6	0xbda6a9e2	-0.08137871
7	0x3c3d8378	0.011566989
8	0xbc86dc1b	-0.016462376
9	0xbd7727b1	-0.060340587
10	0xbe319d43	-0.17345147
11	0xbdbc27cb	-0.091872774
12	0x3c9b00bc	0.018921249
13	0xbe3f100e	-0.18658468
14	0xbd5b99b9	-0.0536134
15	0xbd6dd722	-0.058066495
16	0x3d48d595	0.049031813
17	0xbbfd384d	-0.007727659
18	0xbdd3fd66	-0.10351066
19	0x3e2a67d3	0.16641168
20	0xbd946c0f	-0.07247173
21	0xbd21bb1c	-0.039485082
22	0xbd4f7aae	-0.050654106
23	0xbd8cf82a	-0.06883271
24	0x3cccfdd9	0.025023388
25	0xbd2d30c8	-0.04228285
26	0xbdfdb435	-0.123878874
27	0x3d7fc478	0.062443227
28	0xbe479025	-0.1948858
29	0x3ce0a8b3	0.027424192
30	0xbd7403db	-0.05957399
31	0x3cd0f07f	0.025505302
32	0x3e61fb16	0.22068438
33	0xbd11f384	-0.035632625
34	0x3b950986	0.0045482544
35	0xbdbb930e	-0.09158908
36	0xbe443f60	-0.191648
37	0x3b277351	0.0025550912
38	0xbb8a5e6e	-0.0042226827
39	0xbdae26cc	-0.08503494
40	0x3e2573d6	0.16157469
41	0xbdc58168	-0.09643823
42	0xbe1da606	-0.15395364
43	0xbb5bfb88	-0.0033566672
44	0xbd9a1237	-0.075230055
45	0x3e07c748	0.13259614
46	0x3cc9cf62	0.02463502
47	0xbcd842bd	-0.02639901
48	0xbd9c1e93	-0.07623019
49	0xbdaa99a1	-0.08330084
50	0xbe3d74d3	-0.18501596
51	0xbda4b06f	-0.080414645
52	0x3ca938a3	0.02065689
53	0xbdf74893	-0.12074389
54	0x3cdcec7d	0.026968235
55	0xbdaa676f	-0.0832051
56	0xbd9f44bc	-0.07776782
57	0x3d5eb79e	0.05437433
58	0xbd7f1d10	-0.062283576
59	0x3e0c9ccb	0.13731687
60	0xbd9c9a38	-0.076466024
61	0xbdaf52b8	-0.08560699
62	0xbe452cc5	-0.1925536
63	0xbe0b4517	-0.13600574
64	0xbd796523	-0.060887467
65	0x3d478ddd	0.048719276
66	0xbdb6558f	-0.08903038
67	0xbe0600d2	-0.1308625
68	0x3d849c02	0.06475069
69	0xbde11e55	-0.109921135
70	0x3d152f12	0.036421843
71	0x3cc49de7	0.024001075
72	0x3ddb8008	0.107177794
73	0xbd11555c	-0.035481796
74	0xbd8edcbf	-0.06975698
75	0xbd8317d1	-0.06401027
76	0x3d4a54dd	0.04939734
77	0xbdb14756	-0.086561844
78	0x3d6751ab	0.05647437
79	0xbd161b06	-0.036646865
80	0x3dc5088d	0.096207716
81	0xbde83f9a	-0.11340256
82	0x3cd65f1b	0.026168397
83	0xbd98e5b7	-0.0746569
84	0xbd9c9a55	-0.07646624
85	0x3ddf206b	0.10894855
86	0x3ccf61f1	0.025315257
87	0x3cc2776c	0.023738585
88	0xbe07ba79	-0.13254727
89	0x3da9274d	0.08259449
90	0x3c8c527e	0.01712918
91	0x3e12c81a	0.14334145
92	0x3d7f936c	0.06239645
93	0xbe816340	-0.25271034
94	0x3cef3366	0.029199313
95	0x3d8087d3	0.062759064
96	0xbd7ca80d	-0.061683703
97	0xbdae6beb	-0.085166775
98	0x3db0e24b	0.08636912
99	0xbe63861f	-0.22219132
100	0xbce10fb8	-0.027473316
101	0xbd9130a4	-0.070893556
102	0x3a9cb04f	0.00119544
103	0xbd8b18e2	-0.067918554
104	0x3a9f7f70	0.0012168717
105	0x3da0bf4e	0.078489885
106	0x3e60d82e	0.21957466
107	0xbdca0bf3	-0.098655604
108	0xbd90d90d	-0.07072649
109	0xbe029d9f	-0.1275544
110	0x3cfbe99d	0.030751044
111	0x3c0a80b4	0.008453537
112	0xbcfda1a0	-0.030960858
113	0xbdf28989	-0.11842639
114	0xbdf5a497	-0.11994284
115	0xbdf76e3d	-0.12081573
116	0x3e323154	0.1740163
117	0x3e961918	0.2931602
118	0x3c66c402	0.014084818
119	0xbd90fca0	-0.070794344
120	0xbcaa8873	-0.020817017
121	0x3d9fda6e	0.07805334
122	0x3de384b5	0.11109296
123	0x3d9ad20e	0.07559596
124	0x3dd8a990	0.105792165
125	0xbb0367ba	-0.002005084
126	0x3e080270	0.1328218
127	0xbd98332e	-0.07431637
128	0xbdbc6c49	-0.09200341
129	0x3b97bb0c	0.004630452
130	0xbc224b93	-0.009905714
131	0xbd4bb8e9	-0.04973689
132	0xbd03a88f	-0.032143172
133	0x3c2f7b6b	0.0107105775
134	0xbd6f5766	-0.05843296
135	0x3d1a4bd3	0.037669968
136	0x3a6f03e1	0.00091177045
137	0x3d1b401a	0.03790293
138	0xbdac1e85	-0.08404259
139	0xbde6e0d6	-0.11273353
140	0xbde618de	-0.11235212
141	0xbd4922f1	-0.04910559
142	0x3db400a0	0.08789182
143	0xbdf7f7f6	-0.12107842
144	0xbd111398	-0.035419077
145	0xbd7046da	-0.05866132
146	0xbd42b3fd	-0.04753493
147	0x3e72b1ff	0.23700713
148	0x3ded90a8	0.115998566
149	0xbd0aadbc	-0.033857092
150	0x3bd88090	0.0066071227
151	0xbc9ffed7	-0.019530697
152	0x3c724796	0.014787575
153	0x3da0048e	0.07813369
154	0xbdf4e8b8	-0.1195845
155	0x3d3c5957	0.04598364
156	0xbe06c2fc	-0.13160318
157	0xbc611c6c	-0.013739686
158	0x3dd492b7	0.10379546
159	0xbd5b0d6e	-0.053479604
160	0x3ddd0940	0.1079278
161	0x3d46be58	0.04852137
162	0x3caebb47	0.021329535
163	0x3d60db25	0.054896493
164	0xbcd7a090	-0.02632168
165	0xbd9039c7	-0.0704227
166	0x3d39635b	0.04526077
167	0xbdc1e5ea	-0.09467681
168	0x3d9a77ee	0.07542406
169	0xbcef697e	-0.029225107
170	0x3a3404a6	0.0006867148
171	0x3d39a4fe	0.045323364
172	0xbd8a2010	-0.06744397
173	0x3e78bf0c	0.24291629
174	0x3de3064e	0.11085187
175	0x3d74615f	0.059663173
176	0x3d30e7b7	0.04318973
177	0xbdc994b0	-0.09842813
178	0xbd8379ff	-0.06419753
179	0xbd801f6c	-0.06255993
180	0xbd70f499	-0.058827017
181	0xbc164afa	-0.009173149
182	0x3e4b59f2	0.1985853
183	0xbdce47d9	-0.100722976
184	0xbd1007a1	-0.035163525
185	0xbc92dac1	-0.017926576
186	0xbcd029a0	-0.025410473
187	0x3dbf95f3	0.093547724
188	0xbd8928f3	-0.066972636
189	0xbc9660e0	-0.01835674
190	0xbdd8a5d1	-0.10578502
191	0xbd561c4a	-0.052273072
192	0xbdc4dad9	-0.096120544
193	0x3db4f8b2	0.08836497
194	0x3d6c0e77	0.057630982
195	0x3cab76c0	0.020930648
196	0x3d305ed0	0.04305917
197	0xbe1743b8	-0.14771926
198	0x3d924335	0.07141725
199	0xbd1ccdd6	-0.038282238
200	0x3e01a479	0.12660398
201	0xbd948953	-0.07252755
202	0xbd156d56	-0.036481224
203	0x3b65decc	0.0035075424
204	0x3cf2c67d	0.029635662
205	0xbd2f6b0c	-0.042826697
206	0xbd965579	-0.07340521
207	0xbd5344c1	-0.05157924
208	0x3e118ff0	0.14215064
209	0xbe135f9b	-0.1439194
210	0x3db23ff8	0.08703607
211	0xbc3ebc5c	-0.011641588
212	0xbcbf1b91	-0.023328574
213	0xbc941555	-0.018076578
214	0x3da26953	0.07930245
215	0x3d211a19	0.03933153
216	0xbcfccf6e	-0.030860629
217	0x3d9e9d98	0.07744902
218	0x3d040433	0.032230567
219	0x3e23758c	0.1596281
220	0xbc39070a	-0.011293182
221	0xbd690c83	-0.056896698
222	0x3dd21446	0.10257773
223	0x3dcbd1cb	0.09952124
224	0x3d80ec39	0.06295056
225	0xbdf01764	-0.117232114
226	0x3e090c08	0.13383496
227	0xbd9c6825	-0.076370515
228	0xbd7db9a6	-0.061944626
229	0x3df022c5	0.11725382
230	0x3d1a524b	0.037676137
231	0xbcab8c41	-0.020940902
232	0x3c9aa3e2	0.018876974
233	0x3d64f7e5	0.055900473
234	0x3de5cfc6	0.1122127
235	0xbe01cccd	-0.12675782
236	0x3c9cfc93	0.019163406
237	0xbe2cb864	-0.16867214
238	0x3d2dd39a	0.042438127
239	0xbc8e0a87	-0.017339004
240	0xbda73025	-0.0816348
241	0xbc936a32	-0.017994974
242	0x3cb7c5fd	0.022433275
243	0xbd88245b	-0.06647559
244	0x3dd1c6d2	0.10243
245	0x3ea03601	0.31291202
246	0x3d7bb090	0.06144768
247	0xbcfecba9	-0.031102972
248	0xbbd00728	-0.0063485093
249	0x3dca69d8	0.09883469
250	0x3e8d3469	0.27579048
251	0x3e4f22cf	0.20228122
252	0x3dc31ab9	0.09526581
253	0xbe364ba6	-0.17802295
254	0x3de4840c	0.111579984
255	0xbdef5f23	-0.11688068

lstm.bias_hh_l0 f4 [512]
0	0xbd8b9f5f	-0.06817507
1	0xbcebb82f	-0.028774349
2	0xbda60726	-0.08106832
3	0xbd1b3169	-0.037888918
4	0xbd0f096e	-0.034921102
5	0x3d36b4df	0.044606086
6	0x3bb3f709	0.0054920954
7	0x3e1611fd	0.146553
8	0xbd02cf61	-0.031936053
9	0x3d33781e	0.043815725
10	0xbe24a4b6	-0.16078457
11	0xbddac2ea	-0.10681708
12	0xbc9fa5ef	-0.019488303
13	0xbe6735dc	-0.2257914
14	0x3ca93baf	0.020658342
15	0x3bf4047b	0.007446823
16	0x3dabfcf9	0.0839786
17	0xbd3b3fa8	-0.045715004
18	0xbd4fd139	-0.05073664
19	0x3e075546	0.13216123
20	0xbd693a20	-0.056940198
21	0x3d05730b	0.032580417
22	0x3cfbafaa	0.030723412
23	0xbdb998c4	-0.09062341
24	0xbb642429	-0.0034811592
25	0x3d59134a	0.05299691
26	0xbd2d026b	-0.042238634
27	0x3da443ed	0.08020768
28	0xbe57d36c	-0.21076745
29	0x3d66c8c1	0.056343798
30	0xbdc4c941	-0.09608699
31	0xbd34a324	-0.044100896
32	0x3e10ca57	0.14139687
33	0x3d68b3ae	0.05681198
34	0x3c174dc3	0.009234848
35	0x3bb288cb	0.005448436
36	0xbe096582	-0.13417628
37	0xbdb69979	-0.08915991
38	0x3bdab682	0.0066745887
39	0xbdae9356	-0.08524196
40	0x3e115223	0.14191489
41	0xbe4060a4	-0.18786865
42	0xbdf474f0	-0.119363666
43	0xbcc29be0	-0.023755968
44	0xbe01bfb7	-0.1267079
45	0x3e0858ce	0.13315126
46	0x3db1933b	0.0867066
47	0x3d76afbc	0.060226187
48	0xbdb97341	-0.09055186
49	0xbdd5ea96	-0.10445134
50	0xbe0f2ad9	-0.13981189
51	0xbdca8918	-0.0988943
52	0x3d0f8144	0.035035387
53	0xbd420a30	-0.047372997
54	0x3da2f016	0.07955949
55	0xbe132b65	-0.14372022
56	0x3ca49d02	0.020094398
57	0xbc62df5b	-0.013847197
58	0xbdd919ae	-0.10600601
59	0x3dd73cc9	0.10509641
60	0xbe08a554	-0.13344318
61	0x3cc38bf8	0.023870453
62	0xbe3da4c2	-0.18519881
63	0xba8ab4c3	-0.0010582436
64	0x3c7309e7	0.014833904
65	0xbd808469	-0.06275255
66	0xbdc9e899	-0.098588176
67	0xbe0c29a9	-0.13687767
68	0x3de9b50b	0.11411484
69	0xbe21b910	-0.15793252
70	0x3d8ee5a3	0.069773935
71	0x3c9a43f0	0.018831223
72	0x3e3ad1e2	0.18244126
73	0xbda7af6c	-0.08187756
74	0xbda52111	-0.080629475
75	0xbd706c1f	-0.058696862
76	0xbd203f58	-0.03912291
77	0x3d4aa289	0.04947141
78	0xbc85ceb0	-0.016333908
79	0x3d5a7c33	0.0533411
80	0x3de5046d	0.11182485
81	0xbe0096f8	-0.1255759
82	0x3b2f235c	0.0026723957
83	0xbda078a9	-0.07835514
84	0xbdba5ad0	-0.09099352
85	0x3d917ba7	0.07103663
86	0xbd249ca3	-0.040188443
87	0xbcfe7e33	-0.031066036
88	0xbbfb4940	-0.007668644
89	0x3d8ba485	0.06818489
90	0x3d8b80f1	0.06811703
91	0x3e549d30	0.20763087
92	0x3d8ad4ed	0.067788936
93	0xbe6ba7c3	-0.23013215
94	0xba9b4555	-0.0011846224
95	0x3d39eb7f	0.045390602
96	0xbcadb4d2	-0.021204386
97	0xbd8b4f77	-0.06802266
98	0x3d1c9c08	0.03823474
99	0xbe1d1788	-0.15341008
100	0xbda635e2	-0.08115746
101	0x3d2d393d	0.042290915
102	0xbe0bc0b4	-0.13647729
103	0xbe24023c	-0.16016477
104	0xbd60a189	-0.054841552
105	0x3d8f1673	0.06986704
106	0x3e51198a	0.20419899
107	0xbdeadb83	-0.1146765
108	0xbc5c69cf	-0.013452961
109	0xbdce1b5d	-0.10063813
110	0x3de7abae	0.11312042
111	0x3d2d4830	0.04230517
112	0xbe16a38e	-0.14710829
113	0xbd859297	-0.065221004
114	0xbdfef1de	-0.12448476
115	0xbd8e51db	-0.069492064
116	0x3e0bc371	0.13648774
117	0x3e6fdea8	0.2342478
118	0x3cf90335	0.030397037
119	0xbd41f6ca	-0.047354497
120	0xbd81bd13	-0.06334891
121	0xbc48c9cf	-0.012255146
122	0x3d8857e6	0.0665739
123	0x3cbf4b55	0.02335135
124	0x3cdebdcc	0.027190112
125	0x3d12806f	0.035767015
126	0x3e2379d6	0.15964445
127	0x3c360a5a	0.011110866
128	0x3c185260	0.0092969835
129	0x3d8c8b7e	0.068625435
130	0xbd68d599	-0.056844328
131	0xbd6f9594	-0.05849226
132	0x3be3b1bc	0.006948678
133	0xbd19dbd0	-0.037563145
134	0x3bd158a3	0.00638874
135	0x3cd26025	0.02568061
136	0x3d92de15	0.07171265
137	0xbc14242f	-0.00904183
138	0xbcdba777	-0.026813252
139	0xbe1486d2	-0.14504555
140	0xbdd150c0	-0.1022048
141	0xbdc73122	-0.09726168
142	0x3da1b839	0.07896466
143	0xbcac935d	-0.021066362
144	0x3ce88899	0.028385447
145	0xbd072c97	-0.03300151
146	0xbd2709bf	-0.04078078
147	0x3e4cadb4	0.19988137
148	0xbba31c07	-0.0049777064
149	0xbc829c1c	-0.01594358
150	0xbc752f8a	-0.0149649475
151	0xb91b09ee	-0.00014785651
152	0xba555cdd	-0.0008139143
153	0x3df301c3	0.118655704
154	0xbd911073	-0.070832156
155	0x3db5936e	0.088660106
156	0xbe0c411a	-0.1369671
157	0x3d073b8a	0.033015765
158	0x3dff15ba	0.12455316
159	0xbc3764f0	-0.011193499
160	0x3e5adde9	0.21373715
161	0x3d08540d	0.033283282
162	0x3d85a447	0.06525474
163	0xbc975b53	-0.018476164
164	0xbd29f013	-0.04148872
165	0xbda7f916	-0.08201806
166	0x3db9a285	0.09064201
167	0x3cb7e95c	0.022450142
168	0x3bf75b8b	0.0075487546
169	0xbcda7fb6	-0.026672225
170	0x3d90cd48	0.07070404
171	0xbb9fac32	-0.004872822
172	0xbe1c559b	-0.15267031
173	0x3e468c26	0.193894
174	0x3d2f3937	0.042779174
175	0x3e149c18	0.1451267
176	0x3cea99d7	0.02863781
177	0xbe078df5	-0.13237746
178	0xbdb937c2	-0.09043838
179	0xbddccd63	-0.10781362
180	0x3d030b30	0.03199309
181	0xbd18b6b8	-0.03728363
182	0x3d972750	0.07380545
183	0xbc3dc149	-0.011581727
184	0xbd68891b	-0.05677138
185	0x3d44de5a	0.048063613
186	0xbd0e7f3f	-0.03478932
187	0xbc7b5bfa	-0.015341753
188	0xbd598b15	-0.053111155
189	0xbdd49bb8	-0.103812635
190	0xbdbf224c	-0.093327135
191	0xbd0fb1a8	-0.035081536
192	0xbdb88d36	-0.09011309
193	0xbcb41302	-0.02198172
194	0xbc976099	-0.018478679
195	0xbcb1feda	-0.021727968
196	0xbd372246	-0.04471042
197	0xbe1196bb	-0.14217655
198	0x3dca7c0b	0.098869406
199	0xbda1c09a	-0.07898064
200	0x3e1701f9	0.14746846
201	0xbd9e4fa7	-0.07730036
202	0x3d3e1ac7	0.046412256
203	0xbcba13d7	-0.022714538
204	0x3cf83e3c	0.030303113
205	0xbe2c7d3a	-0.16844645
206	0xbd1298f6	-0.035790406
207	0xbdcb436a	-0.099249676
208	0x3e2ebc7f	0.17064093
209	0xbd80a189	-0.062808104
210	0x3d513c7d	0.051083077
211	0xbdd7e0ee	-0.10540949
212	0xbdb44561	-0.088022955
213	0xbdae3abc	-0.085072964
214	0x3c4a172c	0.012334626
215	0x3d4e2a60	0.05033338
216	0xbd020232	-0.031740375
217	0x3e024649	0.12722124
218	0xbd52dc83	-0.051479828
219	0x3e359a6c	0.17734689
220	0x3d88e71d	0.06684706
221	0xbd5f49bc	-0.054513678
222	0x3dffb555	0.12485758
223	0x3d9cb341	0.076513775
224	0xbd457b92	-0.04821355
225	0xbdfe96c4	-0.124311
226	0x3e14d723	0.14535193
227	0xbd34acc1	-0.044110063
228	0xbe05ba7a	-0.13059416
229	0x3e29425e	0.16529223
230	0x3d8307eb	0.063979946
231	0x3a103a48	0.00055018486
232	0xbd4f14b0	-0.05055684
233	0x3cfd666a	0.030932624
234	0x3e3ef5a7	0.18648396
235	0xbd9692d1	-0.07352222
236	0xbdc770dc	-0.09738323
237	0xbdf0e54d	-0.11762486
238	0x3bfaed89	0.007657711
239	0xbd848c5c	-0.06472084
240	0xbdaa0d02	-0.08303262
241	0xbd8fc2da	-0.07019587
242	0xbd5a3736	-0.05327531
243	0xbe00d5a3	-0.12581496
244	0x3e556fd7	0.20843445
245	0x3eac2e4a	0.33629066
246	0x3def9153	0.1169764
247	0xbdbc2afb	-0.091878854
248	0xbbc3ce68	-0.0059755333
249	0x3daa17dd	0.08305333
250	0x3e8474d4	0.25870383
251	0x3e80b371	0.25136903
252	0x3e44305a	0.1915907
253	0xbe30e6ba	-0.17275515
254	0x3e44ef45	0.19231899
255	0xbc577de9	-0.013152578

fc_next_step.weight f4 [86, 128]
0	0x3ea27883	0.31732568
1	0xbdc083be	-0.09400128
2	0xbdeda594	-0.11603847
3	0xbde54d5c	-0.11196396
4	0xbccabef7	-0.024749262
5	0x3daafbba	0.08348794
6	0x3e235dfc	0.15953821
7	0x3e1ca4b2	0.15297201
8	0x3d9d0ba1	0.07668234
9	0xbc5d7e1c	-0.013518836
10	0x3eb50aa1	0.35359672
11	0xbd5954ee	-0.05305951
12	0x3deff6db	0.11717006
13	0xbdd870bf	-0.105683796
14	0x3ae54522	0.0017491917
15	0x3b2be902	0.0026231413
16	0x3e22d84c	0.15902823
17	0x3e172b34	0.14762574
18	0xbd1156e0	-0.03548324
19	0x3e17d34d	0.14826699
20	0x3e097193	0.13422231
21	0x3daaea32	0.083454505
22	0x3e1f6f07	0.15569697
23	0x3ddc1503	0.10746195
24	0xbe244030	-0.1604011
25	0x3d6a6929	0.057229195
26	0xbf2378fa	-0.6385647
27	0x3e5955ac	0.21224087
28	0x3c9d428d	0.019196773
29	0x3dff98b4	0.12480298
30	0xbd9333e0	-0.07187629
31	0xbd3e1d6b	-0.046414774
32	0x3dc0adbc	0.09408137
33	0xbda70e13	-0.08156981
34	0xbd0b364c	-0.03398733
35	0xbd5ced48	-0.053937227
36	0x3e341e0f	0.17589591
37	0x39790314	0.00023747637
38	0xbee87324	-0.45400345
39	0xbdd15a93	-0.10222354
40	0x3c8aaa45	0.016926894
41	0xbe166b1f	-0.14689301
42	0x3e361f83	0.17785458
43	0x3cff1310	0.03113702
44	0xbe70348d	-0.23457547
45	0xbde225bb	-0.11042353
46	0xbd832d47	-0.0640512
47	0xbd84971a	-0.06474133
48	0xbe086668	-0.13320315
49	0x3e451bc0	0.19248867
50	0x3e2e4b20	0.17020845
51	0x3ea9bb38	0.3315065
52	0x3dad74f1	0.084695704
53	0x3e3ab6a2	0.18233731
54	0xbdc0540b	-0.0939103
55	0x3cacf168	0.021111205
56	0xbdee6ebc	-0.11642215
57	0x3e015096	0.12628397
58	0xbe139349	-0.14411654
59	0x3dc005c5	0.093761005
60	0x3d3b1962	0.045678504
61	0xbec59d1a	-0.3859642
62	0xbe5c9f49	-0.21545137
63	0x3dc31473	0.09525385
64	0xbe5a1fd6	-0.21301207
65	0x3c9db8c6	0.019253146
66	0xbdbf401f	-0.09338402
67	0x3bcc54e7	0.006235707
68	0x3b303959	0.002688965
69	0x3d655f08	0.055998832
70	0xbd7cf6f8	-0.061758965
71	0xbf2ab955	-0.66689044
72	0xbd5d88d8	-0.054085582
73	0xbc5e8ef8	-0.013583891
74	0xbe5e9ece	-0.21740267
75	0x3d3fc38c	0.046817347
76	0x3c16b58b	0.009198557
77	0x3d8d46c5	0.06898264
78	0x3e878fb1	0.26476815
79	0xbd521af2	-0.05129523
80	0xbd4daa82	-0.050211437
81	0xbe0b2d88	-0.13591588
82	0x3df92b8e	0.121665105
83	0xbe9ff896	-0.31244344
84	0xbe66aade	-0.22526118
85	0xbda88a66	-0.082295224
86	0x3df42516	0.11921136
87	0xbe1588b1	-0.14602925
88	0xbde09f1b	-0.10967847
89	0xbe40dd8c	-0.18834513
90	0x3d82c073	0.06384363
91	0x3cedaaac	0.029012047
92	0x3b4c21fa	0.0031148181
93	0x3e47efa7	0.19525014
94	0xbd3f8816	-0.04676064
95	0x3dacf2f8	0.0844478
96	0x3e8e384c	0.27777326
97	0x3eb3f8d6	0.35150784
98	0x3e06b3cc	0.13154525
99	0xbeeb08ba	-0.45905095
100	0xbd535501	-0.051594738
101	0x3d49ab1d	0.049235452
102	0x3c2a881c	0.010408428
103	0x3e159811	0.1460879
104	0x3e4f33e1	0.20234634
105	0xbca111ff	-0.019661902
106	0xbdf734e9	-0.12070639
107	0xbe8008b6	-0.25006646
108	0xbd197945	-0.037469167
109	0x3e005044	0.12530619
110	0xbe5b650f	-0.2142527
111	0xbdbd8da9	-0.09255535
112	0xbe42dd56	-0.19029745
113	0xbdec1182	-0.11526777
114	0x3e053f44	0.13012415
115	0x3e82f126	0.25574607
116	0xbddcc2f6	-0.10779373
117	0x3d899fd1	0.06719936
118	0xbd182bee	-0.03715127
119	0x3cdb60d4	0.02677957
120	0xbe252b7d	-0.1612987
121	0x3d0b963a	0.034078814
122	0x3df23b7c	0.11827752
123	0xbd85360c	-0.06504449
124	0x3d6dab8a	0.05802492
125	0x3e0d0f0e	0.13775274
126	0x3ddfa65e	0.10920404
127	0x3dea0a4c	0.11427745
128	0x3d074a8a	0.03303007
129	0xbd1af823	-0.037834298
130	0xbd68bedf	-0.056822654
131	0xbd8cc9f4	-0.06874457
132	0xbe0fe4de	-0.1405215
133	0x3dc67512	0.09690298
134	0x3dbce4d5	0.09223334
135	0x3e2971f6	0.16547379
136	0x3e041f10	0.12902474
137	0x3e105ad9	0.14097156
138	0x3ef60459	0.48050192
139	0x3ec7fb73	0.39059028
140	0x3e2bf9b5	0.16794474
141	0xbd91ee93	-0.071255825
142	0xbcb0a827	-0.021564556
143	0x3d228c69	0.039684687
144	0x3e3b1b82	0.18272212
145	0xbd515ad7	-0.051112022
146	0xbd9c1333	-0.076208495
147	0x3e0525d9	0.13002719
148	0xbe2e7516	-0.17036852
149	0x3dc89927	0.097948365
150	0x3e01513c	0.12628645
151	0x3e134d5b	0.14384978
152	0xbda882e0	-0.082280874
153	0x3daa22e1	0.08307434
154	0xbe6eae8e	-0.23308775
155	0x3d81e4dd	0.0634248
156	0x3d19b106	0.03752234
157	0x3e81abdf	0.2532644
158	0xbdde7f7f	-0.10864162
159	0xbca34593	-0.019930637
160	0x3dcfd6f7	0.10148423
161	0xbe315dc3	-0.17320924
162	0xbc30a3a7	-0.010781205
163	0xbdae8545	-0.08521513
164	0xbcccac98	-0.024984643
165	0x36e94e80	6.9530797e-06
166	0x3dd92193	0.10602107
167	0xbde2ad33	-0.110681914
168	0x3d72aa8c	0.059244677
169	0x3cde5a93	0.027142799
170	0x3dde166d	0.10844121
171	0x3e2d5453	0.16926698
172	0x3e877bde	0.2646169
173	0xbe11dda7	-0.1424471
174	0xbd38c135	-0.04510613
175	0xbe2ebe6b	-0.17064826
176	0xbe207ec4	-0.15673357
177	0xbb5da9c7	-0.003382312
178	0x3e84a302	0.25905615
179	0x3de4c1e3	0.111697935
180	0x3cecc453	0.028902208
181	0x3d0ff210	0.03514296
182	0xbdf17214	-0.11789337
183	0x3d038928	0.032113224
184	0x3d9375ef	0.072002284
185	0xbb0da01f	-0.0021610332
186	0xbda49638	-0.080364645
187	0xbd2a5924	-0.041588917
188	0x3d974e34	0.07387963
189	0x3da9b45e	0.082863554
190	0x3ecfaf5e	0.40563482
191	0xbe20b8c8	-0.15695488
192	0x3e2cc318	0.16871297
193	0x3dbb9875	0.09159938
194	0xbdfdbf48	-0.1239
195	0x3e432a6f	0.19059156
196	0x3d6c5ad8	0.057703823
197	0xbd7c4442	-0.061588533
198	0xbd381b81	-0.044948105
199	0xbd6a9840	-0.057274103
200	0xbdbf0b52	-0.09328331
201	0xbe1643a3	-0.14674239
202	0xbe787f93	-0.24267416
203	0x3ea3a7a5	0.3196384
204	0x3cf205e1	0.029543819
205	0x3e583f16	0.21117815
206	0x3eb7d5e4	0.35905373
207	0x3eb6b124	0.35682023
208	0xbd0a3648	-0.033743173
209	0xbe070357	-0.13184868
210	0x3e056661	0.13027336
211	0xbe9f94bd	-0.31168166
212	0x3d2d2fa0	0.042281747
213	0xbdc9e8c3	-0.09858849
214	0x3deaf4a1	0.114724405
215	0xbdf9e3de	-0.12201665
216	0xbe82a5b9	-0.2551706
217	0xbe15bde1	-0.14623214
218	0xbd7b5e5e	-0.061369292
219	0x3dc68266	0.0969284
220	0x3dc3cac6	0.0956016
221	0x3e7babfb	0.24577324
222	0xbdff8491	-0.12476457
223	0x3c9b725b	0.018975427
224	0x3ecfd99a	0.40595704
225	0xbdaf9a61	-0.08574367
226	0x3d35bd40	0.044369936
227	0xbe44cf50	-0.19219708
228	0xbd9f43b0	-0.07776582
229	0x3dc0ecb9	0.09420151
230	0x3dc8837f	0.09790706
231	0xbdf85cfd	-0.12127111
232	0x3e51107d	0.20416446
233	0xbe349b77	-0.1763743
234	0xbe185c3a	-0.14878932
235	0xbd847f99	-0.0646965
236	0xbde70300	-0.11279869
237	0x3ddaec06	0.10689549
238	0xbe04c214	-0.1296466
239	0x3dad97c9	0.08476216
240	0xbe0d5f2a	-0.13805833
241	0xbe24b9f5	-0.16086562
242	0xbb52f61f	-0.0032190157
243	0x3e5ee730	0.21767879
244	0xbe1bd3dc	-0.15217537
245	0x3d49d84c	0.049278542
246	0x3ce04c83	0.027380234
247	0xbda1f246	-0.07907538
248	0xbe8317a7	-0.25603983
249	0xbd13dd09	-0.036099467
250	0x3df23b55	0.11827723
251	0xbd6fddbf	-0.058561083
252	0x3db137f5	0.08653251
253	0xbb803514	-0.0039125774
254	0x3daec316	0.085333034
255	0x3e576845	0.2103587

fc_next_step.bias f4 [86]
0	0x3d65675c	0.056006774
1	0x3e28bc38	0.1647805
2	0x3d78ec9d	0.060772527
3	0x3d98d50e	0.07462512
4	0x3ed995d4	0.42497122
5	0x3e256125	0.16150339
6	0x3e15cadb	0.14628164
7	0x3e0b21c5	0.13587101
8	0x3e056cb7	0.13029753
9	0x3dec8d35	0.115503706
10	0x3e2ceaae	0.16886398
11	0x3dd1f2e1	0.102514036
12	0x3e77129f	0.24128197
13	0x3e00be54	0.12572604
14	0x3e18dc74	0.14927846
15	0x3e0057e2	0.12533525
16	0x3e16c11d	0.14722104
17	0x3ded4e77	0.115872316
18	0x3e1549e2	0.14578965
19	0x3d9f70b4	0.07785168
20	0x3d018b2a	0.031626858
21	0x3e155401	0.14582826
22	0x3e092b04	0.13395315
23	0x3e0bd091	0.1365378
24	0x3e2ec5f3	0.17067699
25	0x3e43634f	0.19080852
26	0x3e511ecb	0.20421903
27	0x3dfac8b1	0.1224531
28	0x3e09ffdd	0.1347651
29	0x3e027d31	0.12743069
30	0x3dda3521	0.10654665
31	0x3ecaf884	0.39642727
32	0x3d9b1fa0	0.07574391
33	0x3eb0f6b1	0.3456321
34	0x3cc807eb	0.024417838
35	0x3e3f083c	0.18655485
36	0x3d560422	0.052250035
37	0x3dc2135c	0.09476349
38	0x3e8f47eb	0.27984557
39	0x3e12e204	0.1434403
40	0x3df8cf35	0.121488966
41	0x3de8cc11	0.113670476
42	0x3df79032	0.1208805
43	0x3dec98ca	0.1155258
44	0x3e49b8a1	0.19699337
45	0x3db95ed2	0.09051289
46	0x3e8a3c79	0.26999262
47	0x3defb3ba	0.11704202
48	0x3e0af2d7	0.13569199
49	0x3e0df024	0.13861138
50	0x3e1b3eac	0.15160626
51	0x3e0f0cc0	0.13969707
52	0x3e2fe22a	0.17176118
53	0x3da3c69c	0.07996866
54	0x3d658699	0.056036565
55	0x3df8dc8c	0.12151441
56	0x3e0b290b	0.13589875
57	0x3e07f8d5	0.13278516
58	0x3e6f962a	0.23397127
59	0x3e79d2f4	0.24396878
60	0x3e778ad9	0.2417406
61	0x3e00736b	0.12544028
62	0x3e11c8a4	0.14236695
63	0x3e0630f5	0.13104613
64	0x3de9ad54	0.11410013
65	0x3e7272cd	0.23676606
66	0x3dc53c80	0.0963068
67	0x3ecc96a7	0.3995869
68	0x3de5f5c8	0.1122852
69	0x3e029ad8	0.1275438
70	0x3d665191	0.05623013
71	0x3de6d763	0.112715505
72	0xbafdd42a	-0.0019365598
73	0x3e0d0e1c	0.13774914
74	0xbc29e8ad	-0.010370416
75	0x3d8f6dbd	0.07003353
76	0x3db932af	0.0904287
77	0x3de7c658	0.11317128
78	0x3e000b95	0.12504418
79	0x3d97e2ac	0.07416281
80	0x3e0ae203	0.13562779
81	0xbc01be6d	-0.007918936
82	0xbc8266de	-0.015918192
83	0x3e18a511	0.14906718
84	0x3d95ac81	0.07308293
85	0x3dc013f0	0.09378803

ann_layers.0.weight f4 [128, 128]
0	0xbda56d41	-0.08077479
1	0xbe640b30	-0.22269893
2	0xbce6d2a0	-0.028176606
3	0xbce16d72	-0.027518008
4	0xbd5abb3d	-0.05340122
5	0xbd214336	-0.039370738
6	0xbdbbe836	-0.0917515
7	0x3d185513	0.037190508
8	0xbde8d497	-0.11368673
9	0xbca899f7	-0.020581229
10	0x3d869e0a	0.06573112
11	0xbcbacebc	-0.022803657
12	0xbc5591af	-0.013035222
13	0xbdf8aefc	-0.121427506
14	0xbd9d2128	-0.0767234
15	0x3e364e2e	0.1780326
16	0xbe76460a	-0.24050155
17	0x3ce23fb7	0.027618272
18	0x3ce6a661	0.028155508
19	0x3e4525b4	0.19252664
20	0x3d89403d	0.067017056
21	0x3e3f5946	0.18686399
22	0xbdf2e391	-0.11859811
23	0xbc8773eb	-0.016534766
24	0x3e0a8340	0.1352663
25	0xbd17eb85	-0.037089843
26	0xbe29eb2a	-0.16593614
27	0x3d0137b7	0.031547274
28	0x3e39e733	0.18154602
29	0xbceaeb15	-0.028676549
30	0x3dacc14d	0.08435307
31	0xbc9f87c0	-0.01947391
32	0x3de73e9f	0.11291241
33	0x3dbeb5c5	0.093120135
34	0xbdef0e55	-0.116726555
35	0xbd44b5da	-0.04802499
36	0x3dbcb947	0.09215026
37	0x3d1fb568	0.03899136
38	0xbd766fb2	-0.060165115
39	0x3d9c4908	0.07631117
40	0xbd1ca94a	-0.038247384
41	0xbd8de7e3	-0.069289945
42	0x3d0123a9	0.03152815
43	0x3dc49237	0.09598201
44	0x3dcd95df	0.10038351
45	0x3c9a48cc	0.01883354
46	0x3d3af9bb	0.045648318
47	0xbce89349	-0.028390544
48	0xbd13831a	-0.0360137
49	0x3e2b70f3	0.16742305
50	0x3e17dcc9	0.14830317
51	0x3e0b2140	0.13586903
52	0x3d9fb5f3	0.07798376
53	0x3e229a0b	0.15879075
54	0xbd842337	-0.06452029
55	0x3c3a9bdb	0.011389698
56	0x3e32a9e0	0.17447615
57	0xbd0d9513	-0.034565996
58	0x3d47b015	0.04875191
59	0xbec39997	-0.38203117
60	0x3c81b76b	0.01583453
61	0xbe0a3a9e	-0.13498923
62	0xbc585075	-0.013202776
63	0xbc110123	-0.008850369
64	0x3d71f1ed	0.05906861
65	0xbcd27ea0	-0.025695145
66	0x3d4dfc00	0.050289154
67	0xbd25421f	-0.04034626
68	0xbd1e77fc	-0.038688645
69	0xbd0e9f03	-0.034819614
70	0xbd1623c1	-0.03665519
71	0xbd8bda4a	-0.06828745
72	0xbe0b1acf	-0.13584445
73	0x3d0ec2ee	0.03485387
74	0xbd27fc22	-0.041011937
75	0xbd56672b	-0.052344482
76	0x3d506a14	0.050882414
77	0xbe8d96fe	-0.2765426
78	0xbdae829f	-0.08521008
79	0xbcb92d46	-0.022604596
80	0xbd4df13b	-0.050278883
81	0x3ea6d67d	0.32585517
82	0xbd7b2c52	-0.061321564
83	0xbdb9d99b	-0.09074708
84	0x3c9fa2e0	0.019486845
85	0xbc5d260f	-0.013497843
86	0x3cd7c933	0.026341056
87	0xbddebbec	-0.10875687
88	0x39f5132a	0.0004674432
89	0x3b777ea6	0.0037764697
90	0x3cfe016e	0.031006541
91	0x3db4bb9e	0.08824848
92	0x3c320e95	0.010867734
93	0xbddac99a	-0.10682984
94	0x3d5c4fbd	0.05378698
95	0x3d4957ff	0.049156185
96	0xbdba7aac	-0.09105429
97	0x3c6fca8e	0.014635695
98	0xbe14ec4a	-0.14543262
99	0xbd82e4df	-0.0639131
100	0xbd488edc	-0.048964366
101	0xbd803463	-0.06259992
102	0xbd07ba4d	-0.033136655
103	0xbd95d404	-0.073158294
104	0xbdf6881e	-0.12037681
105	0xbe0b56a6	-0.13607273
106	0xbc8ea214	-0.01741127
107	0x3d5376e3	0.05162705
108	0xbd4c696d	-0.04990523
109	0xbdc915ce	-0.09818612
110	0x3da66eed	0.08126626
111	0xbdca9caf	-0.09893166
112	0x3d69d11e	0.057084195
113	0x3d699d3d	0.05703472
114	0x3e0a2bad	0.13493223
115	0x3cc2e11e	0.023788985
116	0xbdc54b07	-0.09633451
117	0xb8d2fe30	-0.000100609264
118	0x3dd8a84a	0.105789736
119	0xbeabe5f9	-0.33573893
120	0x3bf1ff8b	0.0073851994
121	0x3dcfd21f	0.10147499
122	0xbcdd9207	-0.02704717
123	0x3e083bdd	0.13304086
124	0xbe386c01	-0.1800995
125	0xbd22f862	-0.039787658
126	0x3dcf0a9d	0.10109446
127	0x3d7351f7	0.05940434
128	0x3cd600e8	0.026123479
129	0xbb7fa4e8	-0.0039008204
130	0xbc092b06	-0.008372074
131	0x3cb0096f	0.021488873
132	0xbc777e5c	-0.01510581
133	0x3b0a45f4	0.0021098824
134	0xbd20942a	-0.0392038
135	0xbcee850d	-0.029116178
136	0xbd9f3b2e	-0.077749595
137	0xbdbc05f2	-0.091808215
138	0x3ce9af96	0.028526109
139	0x3d5d0740	0.053961992
140	0xbd3b206c	-0.045685217
141	0xbcf71c3b	-0.030164829
142	0xbcf3da4a	-0.029767174
143	0x3d95f032	0.07321204
144	0x3de50cd0	0.111840844
145	0x3e304dd2	0.17217186
146	0xbd2c35f0	-0.042043626
147	0x3d3c7a70	0.046015203
148	0x3d590821	0.052986268
149	0x3cbd2dbb	0.023093095
150	0xbc85bd3c	-0.016325586
151	0x3bfae69a	0.0076568844
152	0x3e0bf0db	0.13666098
153	0x3e20c4d5	0.15700085
154	0xbda260ba	-0.079286054
155	0xbd376525	-0.044774193
156	0x3ddfbe5e	0.109249815
157	0xbd454635	-0.048162658
158	0x3d3b9a38	0.04580137
159	0xbe11dc2f	-0.1424415
160	0xbc730cc3	-0.014834586
161	0x3d74ab97	0.059733953
162	0x3d3a643d	0.04550575
163	0x3d790360	0.060794234
164	0x3dc4bde8	0.09606534
165	0x3c7bacdc	0.015361037
166	0xbde46b36	-0.11153261
167	0x3dbd1e59	0.09234304
168	0xbdaf251f	-0.08552002
169	0x3d36e895	0.0446554
170	0x3aadb0c8	0.0013251537
171	0xbd55f4d6	-0.052235447
172	0xbbacb175	-0.005270178
173	0x3d6759ed	0.056482244
174	0xbd9825ae	-0.07429062
175	0x3cf5f0c9	0.030022042
176	0x3d30cd0e	0.043164305
177	0x3c8993ea	0.016794164
178	0x3dd329d5	0.10310713
179	0xbe0783e9	-0.13233913
180	0xb980a448	-0.00024536462
181	0x3e0dc151	0.13843276
182	0xbe3249c0	-0.17410946
183	0x3ba0389e	0.004889562
184	0xbda21f42	-0.07916118
185	0x3e1922c0	0.14954662
186	0xbdacfb7c	-0.08446404
187	0xbc2182da	-0.009857858
188	0xbbe87195	-0.007093618
189	0x3d419426	0.047260426
190	0xbb31f015	-0.0027151157
191	0xbd1b6209	-0.03793529
192	0xbd77205c	-0.060333595
193	0x3d86b702	0.06577875
194	0x3cea27c6	0.028583419
195	0xbca3eab9	-0.020009385
196	0x3d29ae24	0.04142584
197	0x3e56c0e9	0.20972027
198	0x3e0f2287	0.13978015
199	0xbd3a2698	-0.045446962
200	0x3e0b255d	0.13588472
201	0x3ce02a95	0.027364055
202	0xbcdb4342	-0.02676547
203	0x3bf5511f	0.007486477
204	0x3ddf2ee4	0.108976156
205	0xbc94da10	-0.018170387
206	0xbd8379f8	-0.06419748
207	0x3dfa2ba9	0.12215359
208	0xbcd0365f	-0.025416551
209	0x3d529766	0.051413916
210	0xbd550b40	-0.052012682
211	0xbe6e3a45	-0.23264416
212	0x3d6aa5b7	0.057286944
213	0xbc00a889	-0.007852682
214	0xbdddb86f	-0.108261935
215	0xbc8d34a0	-0.017237008
216	0xbd62566b	-0.055258196
217	0x3e21c112	0.15796307
218	0x3d10af09	0.035323177
219	0x3c36404a	0.011123726
220	0x3c5715ef	0.013127788
221	0x3c30b144	0.010784451
222	0xbcb5b30f	-0.022180108
223	0xbda53373	-0.08066454
224	0xbcdc0d5e	-0.026861843
225	0x3dc5ea60	0.09663844
226	0xbdb65516	-0.089029476
227	0xbda5c0b5	-0.080933966
228	0xbde5f6bb	-0.11228701
229	0xbc77b3b9	-0.015118533
230	0xbcc56aff	-0.024098871
231	0xbd168c1b	-0.03675471
232	0x3d961130	0.07327497
233	0x3de1deea	0.110288456
234	0xbd02406d	-0.031799722
235	0xbd026e09	-0.03184322
236	0xbd8c6341	-0.06854869
237	0x3d0daa33	0.034586143
238	0xbb5c6159	-0.003362736
239	0x3c048979	0.008089417
240	0xbd012c7a	-0.031536557
241	0x3c9f152c	0.019419275
242	0x3d697402	0.0569954
243	0x3d04a646	0.032385133
244	0xbdf9b9b1	-0.12193621
245	0x3da53e0b	0.080684744
246	0x3df12efe	0.11776541
247	0x3cbd71fc	0.023125641
248	0xbc96fc03	-0.018430715
249	0x3d887a40	0.06663942
250	0xbdca5e37	-0.09881251
251	0x3d55a22a	0.052156605
252	0x3dddca98	0.10829657
253	0x3d9bba26	0.07603864
254	0xbd582d98	-0.052777857
255	0xbd32b9a5	-0.043634076

ann_layers.0.bias f4 [128]
0	0x3d8fff09	0.07031066
1	0xbdb71ec9	-0.08941419
2	0x3dd314aa	0.10306676
3	0xbe1b974d	-0.15194435
4	0x3cd368ac	0.025806747
5	0x3ce22062	0.027603332
6	0xbdf26a2b	-0.11836656
7	0x3d526244	0.051363245
8	0xbb1a20b1	-0.002351802
9	0x3c31ba8d	0.0108477
10	0x3da378f1	0.07982052
11	0xbd51ad15	-0.051190455
12	0x3e08d0b4	0.13360864
13	0xbd7c0fb3	-0.06153841
14	0x3d02b166	0.03190746
15	0x3df1f8a8	0.118150055
16	0x3c71509f	0.014728694
17	0x3cfdb1b5	0.030968526
18	0xbcf6aaf5	-0.030110816
19	0xbd993bce	-0.0748211
20	0xbe03562a	-0.12825838
21	0xbe21e4b9	-0.15809907
22	0x3d8d6259	0.06903524
23	0xbced10e2	-0.028938714
24	0x3ab9e326	0.0014182075
25	0x3d8380a2	0.06421019
26	0xbc9153a3	-0.017740076
27	0xbd13ee03	-0.036115658
28	0x3cf2502b	0.029579243
29	0x3da2efa1	0.07955862
30	0xbc83b3ca	-0.016076941
31	0xbcb8551c	-0.02250152
32	0xbd5f03ab	-0.054446857
33	0xbcfc54a8	-0.030802086
34	0xbd538725	-0.051642556
35	0x3cada459	0.021196531
36	0xbce64ead	-0.028113687
37	0xbc7e34e6	-0.015515542
38	0x3b8d42e0	0.0043109506
39	0xbd8ce42b	-0.06879457
40	0xbd15cf3c	-0.036574587
41	0xbc192508	-0.009347208
42	0xbc5c37c3	-0.013441029
43	0xbd103ca1	-0.03521407
44	0x3d2ebcb9	0.04266045
45	0xbc289f46	-0.01029188
46	0xbd1330b6	-0.035935126
47	0x3d51458b	0.051091712
48	0xbd5973ac	-0.05308883
49	0x3da60d16	0.08107965
50	0xbdb72cfe	-0.089441285
51	0x3d104582	0.035222538
52	0xbc9e12db	-0.0192961
53	0x3cb82dbe	0.02248275
54	0x3df86be5	0.12129954
55	0xbd7231b0	-0.059129417
56	0x3da2c77e	0.07948206
57	0x3dfc2fc9	0.12313802
58	0x3d2892eb	0.041155737
59	0x3d76c21d	0.060243715
60	0x3c973bd0	0.018461138
61	0x3d6540c7	0.05596998
62	0xba1d3601	-0.0005997122
63	0x3d5b86a2	0.053595193
64	0xbcd1f05f	-0.025627313
65	0xbad7edfc	-0.0016474123
66	0x3e204cb5	0.15654261
67	0x3dd92b71	0.10603989
68	0xbbf9b158	-0.007620018
69	0x3d8ccf4e	0.06875478
70	0xbd4df529	-0.05028263
71	0xbdc08c67	-0.094017796
72	0x3df67df3	0.12035742
73	0x3e0731c4	0.13202578
74	0xbdc69dfd	-0.096981026
75	0x3d3a6fab	0.04551665
76	0x3d86ce7d	0.06582353
77	0xbeb4a32f	-0.3528075
78	0xbda29221	-0.07938028
79	0xbe397cbb	-0.18113987
80	0xbdfdb6f5	-0.12388412
81	0xbdeba75a	-0.11506529
82	0xbdaf28b9	-0.08552689
83	0xbe145a93	-0.14487676
84	0x3d8a00e2	0.0673845
85	0x3d9d8dfb	0.07693096
86	0x3ad7366a	0.0016419415
87	0xbcc493af	-0.023996202
88	0x3c997b3f	0.018735526
89	0xbd3595ca	-0.044332303
90	0x3d84e66f	0.06489264
91	0xbe6ce042	-0.23132423
92	0xbc866d0e	-0.016409423
93	0x3e1ced2f	0.15324853
94	0xbe0417e7	-0.12899743
95	0xbdb36dde	-0.0876119
96	0x3b4b1477	0.003098754
97	0xbd456872	-0.04819531
98	0xbaff8340	-0.0019494072
99	0xbdce23b1	-0.10065401
100	0x3cc59425	0.024118492
101	0x3d92a316	0.071600124
102	0x3dc155c4	0.094401866
103	0x3c9b3ece	0.018950846
104	0xbc221ac0	-0.009894073
105	0xbc139316	-0.009007236
106	0x3cebd8e0	0.028789937
107	0xbdcbf34c	-0.099585146
108	0x3ccb3531	0.024805637
109	0xbd5a722e	-0.053331546
110	0xbb419275	-0.0029536758
111	0xbc87a60b	-0.016558668
112	0xbcfd57ba	-0.03092562
113	0x3da446f7	0.08021348
114	0x3d2fcd60	0.04292047
115	0xbd425c33	-0.04745121
116	0x3d9b60a2	0.075867906
117	0xbcd7ff62	-0.026366893
118	0x39d8b987	0.0004133696
119	0x3c6dda38	0.014517359
120	0xbce30d0d	-0.027716184
121	0xbc90b620	-0.017664969
122	0x3d8429ee	0.0645331
123	0xbc13a163	-0.009010646
124	0xbd6fda8c	-0.058558032
125	0xbcd800cc	-0.026367567
126	0xbe1cd811	-0.15316798
127	0xbd27727a	-0.040880658
